Model: "functional_38"
┏━━━━━━━━━━━━━━━━━━━━━━━━━━━━━━━━━┳━━━━━━━━━━━━━━━━━━━━━━━━┳━━━━━━━━━━━━━━━┓
┃ Layer (type)                    ┃ Output Shape           ┃       Param # ┃
┡━━━━━━━━━━━━━━━━━━━━━━━━━━━━━━━━━╇━━━━━━━━━━━━━━━━━━━━━━━━╇━━━━━━━━━━━━━━━┩
│ input_layer_19 (InputLayer)     │ (None, 376, 64)        │             0 │
├─────────────────────────────────┼────────────────────────┼───────────────┤
│ conv1d_38 (Conv1D)              │ (None, 376, 64)        │        20,544 │
├─────────────────────────────────┼────────────────────────┼───────────────┤
│ batch_normalization_38          │ (None, 376, 64)        │           256 │
│ (BatchNormalization)            │                        │               │
├─────────────────────────────────┼────────────────────────┼───────────────┤
│ activation_38 (Activation)      │ (None, 376, 64)        │             0 │
├─────────────────────────────────┼────────────────────────┼───────────────┤
│ max_pooling1d_38 (MaxPooling1D) │ (None, 188, 64)        │             0 │
├─────────────────────────────────┼────────────────────────┼───────────────┤
│ dropout_57 (Dropout)            │ (None, 188, 64)        │             0 │
├─────────────────────────────────┼────────────────────────┼───────────────┤
│ conv1d_39 (Conv1D)              │ (None, 188, 128)       │        41,088 │
├─────────────────────────────────┼────────────────────────┼───────────────┤
│ batch_normalization_39          │ (None, 188, 128)       │           512 │
│ (BatchNormalization)            │                        │               │
├─────────────────────────────────┼────────────────────────┼───────────────┤
│ activation_39 (Activation)      │ (None, 188, 128)       │             0 │
├─────────────────────────────────┼────────────────────────┼───────────────┤
│ max_pooling1d_39 (MaxPooling1D) │ (None, 94, 128)        │             0 │
├─────────────────────────────────┼────────────────────────┼───────────────┤
│ dropout_58 (Dropout)            │ (None, 94, 128)        │             0 │
├─────────────────────────────────┼────────────────────────┼───────────────┤
│ flatten_19 (Flatten)            │ (None, 12032)          │             0 │
├─────────────────────────────────┼────────────────────────┼───────────────┤
│ dense_38 (Dense)                │ (None, 128)            │     1,540,224 │
├─────────────────────────────────┼────────────────────────┼───────────────┤
│ dropout_59 (Dropout)            │ (None, 128)            │             0 │
├─────────────────────────────────┼────────────────────────┼───────────────┤
│ dense_39 (Dense)                │ (None, 7)              │           903 │
└─────────────────────────────────┴────────────────────────┴───────────────┘
 Total params: 1,603,527 (6.12 MB)
 Trainable params: 1,603,143 (6.12 MB)
 Non-trainable params: 384 (1.50 KB)

