Model: "functional_40"
┏━━━━━━━━━━━━━━━━━━━━━━━━━━━━━━━━━┳━━━━━━━━━━━━━━━━━━━━━━━━┳━━━━━━━━━━━━━━━┓
┃ Layer (type)                    ┃ Output Shape           ┃       Param # ┃
┡━━━━━━━━━━━━━━━━━━━━━━━━━━━━━━━━━╇━━━━━━━━━━━━━━━━━━━━━━━━╇━━━━━━━━━━━━━━━┩
│ input_layer_20 (InputLayer)     │ (None, 376, 64)        │             0 │
├─────────────────────────────────┼────────────────────────┼───────────────┤
│ conv1d_40 (Conv1D)              │ (None, 376, 64)        │        20,544 │
├─────────────────────────────────┼────────────────────────┼───────────────┤
│ batch_normalization_40          │ (None, 376, 64)        │           256 │
│ (BatchNormalization)            │                        │               │
├─────────────────────────────────┼────────────────────────┼───────────────┤
│ activation_40 (Activation)      │ (None, 376, 64)        │             0 │
├─────────────────────────────────┼────────────────────────┼───────────────┤
│ max_pooling1d_40 (MaxPooling1D) │ (None, 188, 64)        │             0 │
├─────────────────────────────────┼────────────────────────┼───────────────┤
│ dropout_60 (Dropout)            │ (None, 188, 64)        │             0 │
├─────────────────────────────────┼────────────────────────┼───────────────┤
│ conv1d_41 (Conv1D)              │ (None, 188, 128)       │        41,088 │
├─────────────────────────────────┼────────────────────────┼───────────────┤
│ batch_normalization_41          │ (None, 188, 128)       │           512 │
│ (BatchNormalization)            │                        │               │
├─────────────────────────────────┼────────────────────────┼───────────────┤
│ activation_41 (Activation)      │ (None, 188, 128)       │             0 │
├─────────────────────────────────┼────────────────────────┼───────────────┤
│ max_pooling1d_41 (MaxPooling1D) │ (None, 94, 128)        │             0 │
├─────────────────────────────────┼────────────────────────┼───────────────┤
│ dropout_61 (Dropout)            │ (None, 94, 128)        │             0 │
├─────────────────────────────────┼────────────────────────┼───────────────┤
│ flatten_20 (Flatten)            │ (None, 12032)          │             0 │
├─────────────────────────────────┼────────────────────────┼───────────────┤
│ dense_40 (Dense)                │ (None, 128)            │     1,540,224 │
├─────────────────────────────────┼────────────────────────┼───────────────┤
│ dropout_62 (Dropout)            │ (None, 128)            │             0 │
├─────────────────────────────────┼────────────────────────┼───────────────┤
│ dense_41 (Dense)                │ (None, 7)              │           903 │
└─────────────────────────────────┴────────────────────────┴───────────────┘
 Total params: 1,603,527 (6.12 MB)
 Trainable params: 1,603,143 (6.12 MB)
 Non-trainable params: 384 (1.50 KB)

