Model: "functional_34"
┏━━━━━━━━━━━━━━━━━━━━━━━━━━━━━━━━━┳━━━━━━━━━━━━━━━━━━━━━━━━┳━━━━━━━━━━━━━━━┓
┃ Layer (type)                    ┃ Output Shape           ┃       Param # ┃
┡━━━━━━━━━━━━━━━━━━━━━━━━━━━━━━━━━╇━━━━━━━━━━━━━━━━━━━━━━━━╇━━━━━━━━━━━━━━━┩
│ input_layer_17 (InputLayer)     │ (None, 376, 64)        │             0 │
├─────────────────────────────────┼────────────────────────┼───────────────┤
│ conv1d_34 (Conv1D)              │ (None, 376, 64)        │        20,544 │
├─────────────────────────────────┼────────────────────────┼───────────────┤
│ batch_normalization_34          │ (None, 376, 64)        │           256 │
│ (BatchNormalization)            │                        │               │
├─────────────────────────────────┼────────────────────────┼───────────────┤
│ activation_34 (Activation)      │ (None, 376, 64)        │             0 │
├─────────────────────────────────┼────────────────────────┼───────────────┤
│ max_pooling1d_34 (MaxPooling1D) │ (None, 188, 64)        │             0 │
├─────────────────────────────────┼────────────────────────┼───────────────┤
│ dropout_51 (Dropout)            │ (None, 188, 64)        │             0 │
├─────────────────────────────────┼────────────────────────┼───────────────┤
│ conv1d_35 (Conv1D)              │ (None, 188, 128)       │        41,088 │
├─────────────────────────────────┼────────────────────────┼───────────────┤
│ batch_normalization_35          │ (None, 188, 128)       │           512 │
│ (BatchNormalization)            │                        │               │
├─────────────────────────────────┼────────────────────────┼───────────────┤
│ activation_35 (Activation)      │ (None, 188, 128)       │             0 │
├─────────────────────────────────┼────────────────────────┼───────────────┤
│ max_pooling1d_35 (MaxPooling1D) │ (None, 94, 128)        │             0 │
├─────────────────────────────────┼────────────────────────┼───────────────┤
│ dropout_52 (Dropout)            │ (None, 94, 128)        │             0 │
├─────────────────────────────────┼────────────────────────┼───────────────┤
│ flatten_17 (Flatten)            │ (None, 12032)          │             0 │
├─────────────────────────────────┼────────────────────────┼───────────────┤
│ dense_34 (Dense)                │ (None, 128)            │     1,540,224 │
├─────────────────────────────────┼────────────────────────┼───────────────┤
│ dropout_53 (Dropout)            │ (None, 128)            │             0 │
├─────────────────────────────────┼────────────────────────┼───────────────┤
│ dense_35 (Dense)                │ (None, 7)              │           903 │
└─────────────────────────────────┴────────────────────────┴───────────────┘
 Total params: 1,603,527 (6.12 MB)
 Trainable params: 1,603,143 (6.12 MB)
 Non-trainable params: 384 (1.50 KB)

