Model: "functional_26"
┏━━━━━━━━━━━━━━━━━━━━━━━━━━━━━━━━━┳━━━━━━━━━━━━━━━━━━━━━━━━┳━━━━━━━━━━━━━━━┓
┃ Layer (type)                    ┃ Output Shape           ┃       Param # ┃
┡━━━━━━━━━━━━━━━━━━━━━━━━━━━━━━━━━╇━━━━━━━━━━━━━━━━━━━━━━━━╇━━━━━━━━━━━━━━━┩
│ input_layer_13 (InputLayer)     │ (None, 376, 64)        │             0 │
├─────────────────────────────────┼────────────────────────┼───────────────┤
│ conv1d_26 (Conv1D)              │ (None, 376, 64)        │        20,544 │
├─────────────────────────────────┼────────────────────────┼───────────────┤
│ batch_normalization_26          │ (None, 376, 64)        │           256 │
│ (BatchNormalization)            │                        │               │
├─────────────────────────────────┼────────────────────────┼───────────────┤
│ activation_26 (Activation)      │ (None, 376, 64)        │             0 │
├─────────────────────────────────┼────────────────────────┼───────────────┤
│ max_pooling1d_26 (MaxPooling1D) │ (None, 188, 64)        │             0 │
├─────────────────────────────────┼────────────────────────┼───────────────┤
│ dropout_39 (Dropout)            │ (None, 188, 64)        │             0 │
├─────────────────────────────────┼────────────────────────┼───────────────┤
│ conv1d_27 (Conv1D)              │ (None, 188, 128)       │        41,088 │
├─────────────────────────────────┼────────────────────────┼───────────────┤
│ batch_normalization_27          │ (None, 188, 128)       │           512 │
│ (BatchNormalization)            │                        │               │
├─────────────────────────────────┼────────────────────────┼───────────────┤
│ activation_27 (Activation)      │ (None, 188, 128)       │             0 │
├─────────────────────────────────┼────────────────────────┼───────────────┤
│ max_pooling1d_27 (MaxPooling1D) │ (None, 94, 128)        │             0 │
├─────────────────────────────────┼────────────────────────┼───────────────┤
│ dropout_40 (Dropout)            │ (None, 94, 128)        │             0 │
├─────────────────────────────────┼────────────────────────┼───────────────┤
│ flatten_13 (Flatten)            │ (None, 12032)          │             0 │
├─────────────────────────────────┼────────────────────────┼───────────────┤
│ dense_26 (Dense)                │ (None, 128)            │     1,540,224 │
├─────────────────────────────────┼────────────────────────┼───────────────┤
│ dropout_41 (Dropout)            │ (None, 128)            │             0 │
├─────────────────────────────────┼────────────────────────┼───────────────┤
│ dense_27 (Dense)                │ (None, 7)              │           903 │
└─────────────────────────────────┴────────────────────────┴───────────────┘
 Total params: 1,603,527 (6.12 MB)
 Trainable params: 1,603,143 (6.12 MB)
 Non-trainable params: 384 (1.50 KB)

