Model: "functional_4"
┏━━━━━━━━━━━━━━━━━━━━━┳━━━━━━━━━━━━━━━━━━━┳━━━━━━━━━━━━┳━━━━━━━━━━━━━━━━━━━┓
┃ Layer (type)        ┃ Output Shape      ┃    Param # ┃ Connected to      ┃
┡━━━━━━━━━━━━━━━━━━━━━╇━━━━━━━━━━━━━━━━━━━╇━━━━━━━━━━━━╇━━━━━━━━━━━━━━━━━━━┩
│ input_layer_2       │ (None, 376, 64)   │          0 │ -                 │
│ (InputLayer)        │                   │            │                   │
├─────────────────────┼───────────────────┼────────────┼───────────────────┤
│ conv1d_4 (Conv1D)   │ (None, 376, 64)   │     20,480 │ input_layer_2[0]… │
├─────────────────────┼───────────────────┼────────────┼───────────────────┤
│ batch_normalizatio… │ (None, 376, 64)   │        256 │ conv1d_4[0][0]    │
│ (BatchNormalizatio… │                   │            │                   │
├─────────────────────┼───────────────────┼────────────┼───────────────────┤
│ activation_4        │ (None, 376, 64)   │          0 │ batch_normalizat… │
│ (Activation)        │                   │            │                   │
├─────────────────────┼───────────────────┼────────────┼───────────────────┤
│ max_pooling1d_4     │ (None, 188, 64)   │          0 │ activation_4[0][… │
│ (MaxPooling1D)      │                   │            │                   │
├─────────────────────┼───────────────────┼────────────┼───────────────────┤
│ dropout_6 (Dropout) │ (None, 188, 64)   │          0 │ max_pooling1d_4[… │
├─────────────────────┼───────────────────┼────────────┼───────────────────┤
│ conv1d_5 (Conv1D)   │ (None, 188, 128)  │     40,960 │ dropout_6[0][0]   │
├─────────────────────┼───────────────────┼────────────┼───────────────────┤
│ batch_normalizatio… │ (None, 188, 128)  │        512 │ conv1d_5[0][0]    │
│ (BatchNormalizatio… │                   │            │                   │
├─────────────────────┼───────────────────┼────────────┼───────────────────┤
│ activation_5        │ (None, 188, 128)  │          0 │ batch_normalizat… │
│ (Activation)        │                   │            │                   │
├─────────────────────┼───────────────────┼────────────┼───────────────────┤
│ max_pooling1d_5     │ (None, 94, 128)   │          0 │ activation_5[0][… │
│ (MaxPooling1D)      │                   │            │                   │
├─────────────────────┼───────────────────┼────────────┼───────────────────┤
│ dropout_7 (Dropout) │ (None, 94, 128)   │          0 │ max_pooling1d_5[… │
├─────────────────────┼───────────────────┼────────────┼───────────────────┤
│ conv1d_6 (Conv1D)   │ (None, 94, 256)   │    163,840 │ dropout_7[0][0]   │
├─────────────────────┼───────────────────┼────────────┼───────────────────┤
│ batch_normalizatio… │ (None, 94, 256)   │      1,024 │ conv1d_6[0][0]    │
│ (BatchNormalizatio… │                   │            │                   │
├─────────────────────┼───────────────────┼────────────┼───────────────────┤
│ activation_6        │ (None, 94, 256)   │          0 │ batch_normalizat… │
│ (Activation)        │                   │            │                   │
├─────────────────────┼───────────────────┼────────────┼───────────────────┤
│ max_pooling1d_6     │ (None, 47, 256)   │          0 │ activation_6[0][… │
│ (MaxPooling1D)      │                   │            │                   │
├─────────────────────┼───────────────────┼────────────┼───────────────────┤
│ dropout_8 (Dropout) │ (None, 47, 256)   │          0 │ max_pooling1d_6[… │
├─────────────────────┼───────────────────┼────────────┼───────────────────┤
│ conv1d_7 (Conv1D)   │ (None, 47, 512)   │    655,360 │ dropout_8[0][0]   │
├─────────────────────┼───────────────────┼────────────┼───────────────────┤
│ batch_normalizatio… │ (None, 47, 512)   │      2,048 │ conv1d_7[0][0]    │
│ (BatchNormalizatio… │                   │            │                   │
├─────────────────────┼───────────────────┼────────────┼───────────────────┤
│ activation_7        │ (None, 47, 512)   │          0 │ batch_normalizat… │
│ (Activation)        │                   │            │                   │
├─────────────────────┼───────────────────┼────────────┼───────────────────┤
│ max_pooling1d_7     │ (None, 23, 512)   │          0 │ activation_7[0][… │
│ (MaxPooling1D)      │                   │            │                   │
├─────────────────────┼───────────────────┼────────────┼───────────────────┤
│ dropout_9 (Dropout) │ (None, 23, 512)   │          0 │ max_pooling1d_7[… │
├─────────────────────┼───────────────────┼────────────┼───────────────────┤
│ dense_8 (Dense)     │ (None, 23, 64)    │     32,832 │ dropout_9[0][0]   │
├─────────────────────┼───────────────────┼────────────┼───────────────────┤
│ dense_9 (Dense)     │ (None, 23, 1)     │         65 │ dense_8[0][0]     │
├─────────────────────┼───────────────────┼────────────┼───────────────────┤
│ softmax_2 (Softmax) │ (None, 23, 1)     │          0 │ dense_9[0][0]     │
├─────────────────────┼───────────────────┼────────────┼───────────────────┤
│ multiply_2          │ (None, 23, 512)   │          0 │ dropout_9[0][0],  │
│ (Multiply)          │                   │            │ softmax_2[0][0]   │
├─────────────────────┼───────────────────┼────────────┼───────────────────┤
│ sum_2 (Sum)         │ (None, 512)       │          0 │ multiply_2[0][0]  │
├─────────────────────┼───────────────────┼────────────┼───────────────────┤
│ dense_10 (Dense)    │ (None, 128)       │     65,664 │ sum_2[0][0]       │
├─────────────────────┼───────────────────┼────────────┼───────────────────┤
│ dropout_10          │ (None, 128)       │          0 │ dense_10[0][0]    │
│ (Dropout)           │                   │            │                   │
├─────────────────────┼───────────────────┼────────────┼───────────────────┤
│ dense_11 (Dense)    │ (None, 7)         │        903 │ dropout_10[0][0]  │
└─────────────────────┴───────────────────┴────────────┴───────────────────┘
 Total params: 983,944 (3.75 MB)
 Trainable params: 982,024 (3.75 MB)
 Non-trainable params: 1,920 (7.50 KB)

