Model: "functional_5"
┏━━━━━━━━━━━━━━━━━━━━━┳━━━━━━━━━━━━━━━━━━━┳━━━━━━━━━━━━┳━━━━━━━━━━━━━━━━━━━┓
┃ Layer (type)        ┃ Output Shape      ┃    Param # ┃ Connected to      ┃
┡━━━━━━━━━━━━━━━━━━━━━╇━━━━━━━━━━━━━━━━━━━╇━━━━━━━━━━━━╇━━━━━━━━━━━━━━━━━━━┩
│ input_layer_4       │ (None, 251, 64)   │          0 │ -                 │
│ (InputLayer)        │                   │            │                   │
├─────────────────────┼───────────────────┼────────────┼───────────────────┤
│ conv1d_8 (Conv1D)   │ (None, 251, 64)   │     20,480 │ input_layer_4[0]… │
├─────────────────────┼───────────────────┼────────────┼───────────────────┤
│ batch_normalizatio… │ (None, 251, 64)   │        256 │ conv1d_8[0][0]    │
│ (BatchNormalizatio… │                   │            │                   │
├─────────────────────┼───────────────────┼────────────┼───────────────────┤
│ activation_8        │ (None, 251, 64)   │          0 │ batch_normalizat… │
│ (Activation)        │                   │            │                   │
├─────────────────────┼───────────────────┼────────────┼───────────────────┤
│ max_pooling1d_8     │ (None, 125, 64)   │          0 │ activation_8[0][… │
│ (MaxPooling1D)      │                   │            │                   │
├─────────────────────┼───────────────────┼────────────┼───────────────────┤
│ dropout_12          │ (None, 125, 64)   │          0 │ max_pooling1d_8[… │
│ (Dropout)           │                   │            │                   │
├─────────────────────┼───────────────────┼────────────┼───────────────────┤
│ conv1d_9 (Conv1D)   │ (None, 125, 128)  │     40,960 │ dropout_12[0][0]  │
├─────────────────────┼───────────────────┼────────────┼───────────────────┤
│ batch_normalizatio… │ (None, 125, 128)  │        512 │ conv1d_9[0][0]    │
│ (BatchNormalizatio… │                   │            │                   │
├─────────────────────┼───────────────────┼────────────┼───────────────────┤
│ activation_9        │ (None, 125, 128)  │          0 │ batch_normalizat… │
│ (Activation)        │                   │            │                   │
├─────────────────────┼───────────────────┼────────────┼───────────────────┤
│ max_pooling1d_9     │ (None, 62, 128)   │          0 │ activation_9[0][… │
│ (MaxPooling1D)      │                   │            │                   │
├─────────────────────┼───────────────────┼────────────┼───────────────────┤
│ dropout_13          │ (None, 62, 128)   │          0 │ max_pooling1d_9[… │
│ (Dropout)           │                   │            │                   │
├─────────────────────┼───────────────────┼────────────┼───────────────────┤
│ dense_16 (Dense)    │ (None, 62, 64)    │      8,256 │ dropout_13[0][0]  │
├─────────────────────┼───────────────────┼────────────┼───────────────────┤
│ dense_17 (Dense)    │ (None, 62, 1)     │         65 │ dense_16[0][0]    │
├─────────────────────┼───────────────────┼────────────┼───────────────────┤
│ softmax_4 (Softmax) │ (None, 62, 1)     │          0 │ dense_17[0][0]    │
├─────────────────────┼───────────────────┼────────────┼───────────────────┤
│ multiply_4          │ (None, 62, 128)   │          0 │ dropout_13[0][0], │
│ (Multiply)          │                   │            │ softmax_4[0][0]   │
├─────────────────────┼───────────────────┼────────────┼───────────────────┤
│ sum_4 (Sum)         │ (None, 128)       │          0 │ multiply_4[0][0]  │
├─────────────────────┼───────────────────┼────────────┼───────────────────┤
│ dense_18 (Dense)    │ (None, 128)       │     16,512 │ sum_4[0][0]       │
├─────────────────────┼───────────────────┼────────────┼───────────────────┤
│ dropout_14          │ (None, 128)       │          0 │ dense_18[0][0]    │
│ (Dropout)           │                   │            │                   │
├─────────────────────┼───────────────────┼────────────┼───────────────────┤
│ dense_19 (Dense)    │ (None, 7)         │        903 │ dropout_14[0][0]  │
└─────────────────────┴───────────────────┴────────────┴───────────────────┘
 Total params: 87,944 (343.53 KB)
 Trainable params: 87,560 (342.03 KB)
 Non-trainable params: 384 (1.50 KB)