Model: "functional_18"
┏━━━━━━━━━━━━━━━━━━━━━━━━━━━━━━━━━┳━━━━━━━━━━━━━━━━━━━━━━━━┳━━━━━━━━━━━━━━━┓
┃ Layer (type)                    ┃ Output Shape           ┃       Param # ┃
┡━━━━━━━━━━━━━━━━━━━━━━━━━━━━━━━━━╇━━━━━━━━━━━━━━━━━━━━━━━━╇━━━━━━━━━━━━━━━┩
│ input_layer_9 (InputLayer)      │ (None, 376, 64)        │             0 │
├─────────────────────────────────┼────────────────────────┼───────────────┤
│ conv1d_18 (Conv1D)              │ (None, 376, 64)        │        20,544 │
├─────────────────────────────────┼────────────────────────┼───────────────┤
│ batch_normalization_18          │ (None, 376, 64)        │           256 │
│ (BatchNormalization)            │                        │               │
├─────────────────────────────────┼────────────────────────┼───────────────┤
│ activation_18 (Activation)      │ (None, 376, 64)        │             0 │
├─────────────────────────────────┼────────────────────────┼───────────────┤
│ max_pooling1d_18 (MaxPooling1D) │ (None, 188, 64)        │             0 │
├─────────────────────────────────┼────────────────────────┼───────────────┤
│ dropout_27 (Dropout)            │ (None, 188, 64)        │             0 │
├─────────────────────────────────┼────────────────────────┼───────────────┤
│ conv1d_19 (Conv1D)              │ (None, 188, 128)       │        41,088 │
├─────────────────────────────────┼────────────────────────┼───────────────┤
│ batch_normalization_19          │ (None, 188, 128)       │           512 │
│ (BatchNormalization)            │                        │               │
├─────────────────────────────────┼────────────────────────┼───────────────┤
│ activation_19 (Activation)      │ (None, 188, 128)       │             0 │
├─────────────────────────────────┼────────────────────────┼───────────────┤
│ max_pooling1d_19 (MaxPooling1D) │ (None, 94, 128)        │             0 │
├─────────────────────────────────┼────────────────────────┼───────────────┤
│ dropout_28 (Dropout)            │ (None, 94, 128)        │             0 │
├─────────────────────────────────┼────────────────────────┼───────────────┤
│ flatten_9 (Flatten)             │ (None, 12032)          │             0 │
├─────────────────────────────────┼────────────────────────┼───────────────┤
│ dense_18 (Dense)                │ (None, 128)            │     1,540,224 │
├─────────────────────────────────┼────────────────────────┼───────────────┤
│ dropout_29 (Dropout)            │ (None, 128)            │             0 │
├─────────────────────────────────┼────────────────────────┼───────────────┤
│ dense_19 (Dense)                │ (None, 7)              │           903 │
└─────────────────────────────────┴────────────────────────┴───────────────┘
 Total params: 1,603,527 (6.12 MB)
 Trainable params: 1,603,143 (6.12 MB)
 Non-trainable params: 384 (1.50 KB)

